…
parameters is therefore50×19 + 50 + 50 + 1 = 1051.The packagetorchinfoprovides asummary()function that neatly sum-marizes this information. We specify the size of the input and see the sizeof each tensor as it passes through layers of the network.In[20]:summary(hit_model,input_size=X_train.shape,col_names=['input_size','output_size','num_params'])Out[20]:=====================================================================Layer (type:depth-idx) Input Shape Output Shape Param#=====================================================================HittersModel[175, 19] [175]--Flatten: 1-1[175, 19] [175, 19] --Sequential: 1-2[175, 19] [175, 1] --Linear: 2-1[175, 19] [175, 50] 1,000ReLU: 2-2[175, 50] [175, 50] --Dropout: 2-3[175, 50][175, 50]--Linear: 2-4[175, 50] [175, 1] 51=====================================================================Total params: 1,051Trainable params: 1,051We have truncated the end of the output slightly, here and in subsequentuses.We now need to transform our training data into a form accessible totorch. The basic datatype intorchis atensor, which is very similar toanndarrayfrom early chapters. We also note here thattorchtypicallyworks wit
…
sed onour existing batchX_above.In[38]:mnist_model(X_).size()Out[38]:torch.Size([256, 10])Let’s take a look at the summary of the model. Instead of aninput_sizewe can pass a tensor of correct shape. In this case, we pass through thefinal batchedX_from above. 446 10. Deep LearningIn[39]:summary(mnist_model,input_data=X_,col_names=['input_size','output_size','num_params'])Out[39]:=====================================================================Layer (type:depth-idx) Input Shape Output Shape Param#=====================================================================MNISTModel[256, 1, 28, 28] [256, 10] --Sequential: 1-1[256, 1, 28, 28] [256, 10] --Sequential: 2-1 [256, 1, 28, 28] [256, 256] --Flatten: 3-1 [256, 1, 28, 28] [256, 784] --Linear: 3-2 [256, 784] [256, 256] 200,960ReLU: 3-3 [256, 256] [256, 256] --Dropout: 3-4 [256, 256] [256, 256] --Sequential: 2-2 [256, 256] [256, 128] --Linear: 3-5 [256, 256] [256, 128] 32,896ReLU: 3-6 [256, 128] [256, 128] --Dropout: 3-7 [256, 128] [256, 128] --Linear: 2-3[256, 128] [256, 10] 1,290=====================================================================Total params: 235,146Trainable params: 235,146Having set up both the model and the data module, fitting this model isnow almost identical to theHittersexample. In contrast to our regressionmodel, here we will use theSimpleModule.classification()method whichSimpleModule.classifi-cation()uses the cross-entropy loss function instead
…
ReLU(),nn.Linear(512, 100))def forward(self, x):val = self.conv(x)val = torch.flatten(val, start_dim=1)return self.output(val)We build the model and look at the summary. (We had created examplesofX_earlier.)In[55]:cifar_model = CIFARModel()summary(cifar_model,input_data=X_,col_names=['input_size','output_size','num_params'])Out[55]:======================================================================Layer (type:depth-idx) Input Shape Output Shape Param#======================================================================CIFARModel[128, 3, 32, 32] [128, 100]--Sequential: 1-1 [128, 3, 32, 32] [128, 256, 2, 2] --BuildingBlock: 2-1 [128, 3, 32, 32] [128, 32, 16, 16] --Conv2d: 3-1 [128, 3, 32, 32] [128, 32, 32, 32] 896ReLU: 3-2 [128, 32, 32, 32] [128, 32, 32, 32] --MaxPool2d: 3-3 [128, 32, 32, 32] [128, 32, 16, 16] --BuildingBlock: 2-2 [128, 32, 16, 16] [128, 64, 8, 8] --Conv2d: 3-4 [128, 32, 16, 16] [128, 64, 16, 16] 18,496ReLU: 3-5 [128, 64, 16, 16] [128, 64, 16, 16] --MaxPool2d: 3-6 [128, 64, 16, 16] [128, 64, 8, 8] --BuildingBlock: 2-3 [128, 64, 8, 8] [128, 128, 4, 4] --Conv2d: 3-7 [128, 64, 8, 8] [128, 128, 8, 8] 73,856ReLU: 3-8 [128, 128, 8, 8] [128, 128, 8, 8] --MaxPool2d: 3-9 [128, 128, 8, 8] [128, 128, 4, 4] --BuildingBlock: 2-4 [128, 128, 4, 4] [128, 256, 2, 2] --Conv2d: 3-10 [128, 128, 4, 4] [128, 256, 4, 4] 295,168ReLU: 3-11 [128, 256, 4, 4] [128, 256, 4, 4] --MaxPool2d: 3-12 [128, 256, 4, 4] [128, 256, 2, 2] --Sequential: 1-2 [128, 1024] [128, 100]--Dropout: 2-5 [128, 1024] [128, 1024] --Linear: 2-6 [128, 1024] [128, 512]524,800 10.9 Lab: Deep Learning 451ReLU:", "metadata": {"source_type": "pdf", "source_path": "C:\\Users\\scoti\\PycharmProjects\\ML_RAG\\data\\raw\\ISLP_website.pdf", "filename": "ISLP_website.pdf", "num_pages_total": 613, "num_pages_read": 613, "chunk_index": 504, "start_word": 161280, "end_word": 161680, "chunk_words": 400}}, "ISLP_website::c000505": {"text": "[128, 128, 8, 8] [128, 128, 8, 8] --MaxPool2d: 3-9 [128, 128, 8, 8] [128, 128, 4, 4] --BuildingBlock: 2-4 [128, 128, 4, 4] [128, 256, 2, 2] --Conv2d: 3-10 [128, 128, 4, 4] [128, 256, 4, 4] 295,168ReLU: 3-11 [128, 256, 4, 4] [128, 256, 4, 4] --MaxPool2d: 3-12 [128, 256, 4, 4] [128, 256, 2, 2] --Sequential: 1-2 [128, 1024] [128, 100]--Dropout: 2-5 [128, 1024] [128, 1024] --Linear: 2-6 [128, 1024] [128, 512]524,800 10.9 Lab: Deep Learning 451ReLU: 2-7 [128, 512][128, 512]--Linear: 2-8 [128, 512][128, 100]51,300======================================================================Total params: 964,516Trainable params: 964,516The total number of trainable parameters is 964,516. By studying the sizeof the parameters, we can see that the channels halve in both dimensions
…
